arch: pointnet
batch_size: 32
calc_scores: softmax
dropout: 0.5
epochs: 350
eval: False
exp_name: pointnet_paconv_train
k_neighbors: 30
lr: 0.1
manual_seed: 0
momentum: 0.9
no_cuda: False
num_matrices: [8, 8, 8]
num_points: 100
pt_norm: False
test_batch_size: 16
workers: 6
Using GPU
PAConv(
  (scorenet2): ScoreNet(
    (mlp_convs_hidden): ModuleList(
      (0): Conv2d(6, 16, kernel_size=(1, 1), stride=(1, 1), bias=False)
      (1): Conv2d(16, 8, kernel_size=(1, 1), stride=(1, 1))
    )
    (mlp_bns_hidden): ModuleList(
      (0): BatchNorm2d(16, eps=1e-05, momentum=0.1, affine=True, track_running_stats=True)
      (1): BatchNorm2d(8, eps=1e-05, momentum=0.1, affine=True, track_running_stats=True)
    )
  )
  (scorenet3): ScoreNet(
    (mlp_convs_hidden): ModuleList(
      (0): Conv2d(6, 16, kernel_size=(1, 1), stride=(1, 1), bias=False)
      (1): Conv2d(16, 8, kernel_size=(1, 1), stride=(1, 1))
    )
    (mlp_bns_hidden): ModuleList(
      (0): BatchNorm2d(16, eps=1e-05, momentum=0.1, affine=True, track_running_stats=True)
      (1): BatchNorm2d(8, eps=1e-05, momentum=0.1, affine=True, track_running_stats=True)
    )
  )
  (scorenet4): ScoreNet(
    (mlp_convs_hidden): ModuleList(
      (0): Conv2d(6, 16, kernel_size=(1, 1), stride=(1, 1), bias=False)
      (1): Conv2d(16, 8, kernel_size=(1, 1), stride=(1, 1))
    )
    (mlp_bns_hidden): ModuleList(
      (0): BatchNorm2d(16, eps=1e-05, momentum=0.1, affine=True, track_running_stats=True)
      (1): BatchNorm2d(8, eps=1e-05, momentum=0.1, affine=True, track_running_stats=True)
    )
  )
  (bn1): BatchNorm1d(64, eps=1e-05, momentum=0.1, affine=True, track_running_stats=True)
  (bn2): BatchNorm1d(64, eps=1e-05, momentum=0.1, affine=True, track_running_stats=True)
  (bn3): BatchNorm1d(64, eps=1e-05, momentum=0.1, affine=True, track_running_stats=True)
  (bn4): BatchNorm1d(128, eps=1e-05, momentum=0.1, affine=True, track_running_stats=True)
  (bn5): BatchNorm1d(1024, eps=1e-05, momentum=0.1, affine=True, track_running_stats=True)
  (conv1): Conv1d(3, 64, kernel_size=(1,), stride=(1,), bias=False)
  (conv5): Conv1d(128, 1024, kernel_size=(1,), stride=(1,), bias=False)
  (linear1): Linear(in_features=1024, out_features=512, bias=False)
  (bn6): BatchNorm1d(512, eps=1e-05, momentum=0.1, affine=True, track_running_stats=True)
  (dp1): Dropout(p=0.5, inplace=False)
  (linear2): Linear(in_features=512, out_features=40, bias=True)
)
Train 0, loss: 3.501451, train acc: 0.255802, 
Test 0, loss: 2.713022, test acc: 0.367909,
Max Acc:0.367909
Train 1, loss: 2.743483, train acc: 0.420195, 
Test 1, loss: 2.358636, test acc: 0.535251,
Max Acc:0.535251
Train 2, loss: 2.492896, train acc: 0.520969, 
Test 2, loss: 2.173615, test acc: 0.620340,
Max Acc:0.620340
Train 3, loss: 2.303152, train acc: 0.598432, 
…
